…
":["Ahora ya podemos ver el Modelo en su totalidad:\n","\n","\n","\n","\n","\n"],"metadata":{"id":"eRgguPLKAuZ5"}},{"cell_type":"code","source":["model.to(device)"],"metadata":{"id":"Ih7ZQDd6wU9Q","colab":{"base_uri":"https://localhost:8080/"},"executionInfo":{"status":"ok","timestamp":1736370482474,"user_tz":-60,"elapsed":385,"user":{"displayName":"Eric Risco de la Torre","userId":"16820333876295128124"}},"outputId":"7dd997fa-7c70-42a6-deac-f3e65f9264c7"},"execution_count":null,"outputs":[{"output_type":"execute_result","data":{"text/plain":["GPT(\n","  (transformer): ModuleDict(\n","    (wte): Embedding(20099, 516)\n","    (wpe): Embedding(512, 516)\n","    (drop): Dropout(p=0.2, inplace=False)\n","    (h): ModuleList(\n","      (0-5): 6 x Block(\n","        (ln_1): LayerNorm()\n","        (attn): CausalSelfAttention(\n","          (c_attn): Linear(in_features=516, out_features=1548, bias=False)\n","          (c_proj): Linear(in_features=516, out_features=516, bias=False)\n","          (attn_dropout): Dropout(p=0.2, inplace=False)\n","          (resid_dropout): Dropout(p=0.2, inplace=False)\n","        )\n","        (ln_2): LayerNorm()\n","        (mlp): MLP(\n","          (c_fc): Linear(in_features=516, out_features=2064, bias=False)\n","          (gelu): GELU(approximate='none')\n","          (c_proj): Linear(in_features=2064, out_features=516, bias=False)\n","          (dropout): Dropout(p=0.2, inplace=False)\n","        )\n","      )\n","    )\n","    (ln_f): LayerNorm()\n","  )\n","  (lm_head): Linear(in_features=516, out_features=20099, bias=False)\n",")"]},"metadata":{},"execution_count":50}]},{"cell_type":"markdown","source":["Vamos a nombrar algunas cosas que hemos visto:\n","\n","- Normalización de Capa: `ln_f`\n","- Proyección Lineal para Salida: `lm_head`\n","- Mecanismo de Atención: `attn`\n","- Codificación Posicional: `wpe`\n","- Incrustaciones: `wte`\n","- Red de Avance Lineal (Feed 
…
